…
22-04-07 20:16:02.520374: I tensorflow/core/platform/cpu_feature_guard.cc:151] This TensorFlow binary is optimized with oneAPI Deep Neural Network Library (oneDNN) to use the following CPU instructions in performance-critical operations:  AVX
To enable them in other operations, rebuild TensorFlow with the appropriate compiler flags.
Model created successfully!
Model: "model"
_________________________________________________________________
 Layer (type)                Output Shape              Param #
=================================================================
 input_1 (InputLayer)        [(None, 600, 600, 3)]     0

 conv2d (Conv2D)             (None, 598, 598, 16)      448

 max_pooling2d (MaxPooling2D  (None, 299, 299, 16)     0
 )

 conv2d_1 (Conv2D)           (None, 297, 297, 32)      4640

 max_pooling2d_1 (MaxPooling  (None, 148, 148, 32)     0
 2D)

 conv2d_2 (Conv2D)           (None, 146, 146, 64)      18496

 max_pooling2d_2 (MaxPooling  (None, 73, 73, 64)       0
 2D)

 flatten (Flatten)           (None, 341056)            0

 dense (Dense)               (None, 512)               174621184

 dropout (Dropout)           (None, 512)               0

 dense_1 (Dense)             (None, 5)                 2565

=================================================================
Total params: 174,647,333
Trainable params: 174,647,333
Non-trainable params: 0
_________________________________________________________________
Found 10650 images belonging to 5 classes.
Found 1335 images belonging to 5 classes.
cnn.py:82: UserWarning: `Model.fit_generator` is deprecated and will be removed in a future version. Please use `Model.fit`, which supports generators.
…
