…
C:\Users\Customer\AppData\Local\Programs\Python\Python38\lib\site-packages\keras\optimizer_v2\gradient_descent.py:102: UserWarning: The `lr` argument is deprecated, use `learning_rate` instead.
  super(SGD, self).__init__(name, **kwargs)
Model created successfully!
Model: "model"
__________________________________________________________________________________________________
 Layer (type)                   Output Shape         Param #     Connected to
==================================================================================================
 input_1 (InputLayer)           [(None, 200, 200, 3  0           []
                                )]

 conv1_pad (ZeroPadding2D)      (None, 206, 206, 3)  0           ['input_1[0][0]']

 conv1_conv (Conv2D)            (None, 100, 100, 64  9472        ['conv1_pad[0][0]']
                                )

 conv1_bn (BatchNormalization)  (None, 100, 100, 64  256         ['conv1_conv[0][0]']
                                )

 conv1_relu (Activation)        (None, 100, 100, 64  0           ['conv1_bn[0][0]']
                                )

 pool1_pad (ZeroPadding2D)      (None, 102, 102, 64  0           ['conv1_relu[0][0]']
                                )

 pool1_pool (MaxPooling2D)      (None, 50, 50, 64)   0           ['pool1_pad[0][0]']

 conv2_block1_1_conv (Conv2D)   (None, 50, 50, 64)   4160        ['pool1_pool[0][0]']

 conv2_block1_1_bn (BatchNormal  (None, 50, 50, 64)  256         ['conv2_block1_1_conv[0][0]']
 ization)

 conv2_block1_1_relu (Activatio  (None, 50, 50, 64)  0           ['conv2_block1_1_bn[0][0]']
 n)

 conv2_block1_2_conv (Conv2D)   (None, 50, 50, 64)   36928       ['conv2_block1_1_relu[0][0]']

 conv2_block1_2_bn (BatchNormal  (None, 50, 50, 64)  256         ['conv2_block1_2_conv[0][0]']
 ization)

 conv2_block1_2_relu (Activatio  (None, 50, 50, 64)  0           ['conv2_block1_2_bn[0][0]']
 n)

 conv2_block1_0_conv (Conv2D)   (None, 50, 50, 256)  16640       ['pool1_pool[0][0]']

 conv2_block1_3_conv (Conv2D)   (None, 50, 50, 256)  16640       ['conv2_block1_2_relu[0][0]']

 conv2_block1_0_bn (BatchNormal  (None, 50, 50, 256)  1024       ['conv2_block1_0_conv[0][0]']
 ization)

 conv2_block1_3_bn (BatchNormal  (None, 50, 50, 256)  1024       ['conv2_block1_3_conv[0][0]']
 ization)

 conv2_block1_add (Add)         (None, 50, 50, 256)  0           ['conv2_block1_0_bn[0][0]',
                                                                  'conv2_block1_3_bn[0][0]']

 conv2_block1_out (Activation)  (None, 50, 50, 256)  0           ['conv2_block1_add[0][0]']

 conv2_block2_1_conv (Conv2D)   (None, 50, 50, 64)   16448       ['conv2_block1_out[0][0]']

 conv2_block2_1_bn (BatchNormal  (None, 50, 50, 64)  256         ['conv2_block2_1_conv[0][0]']
 ization)

 conv2_block2_1_relu (Activatio  (None, 50, 50, 64)  0           ['conv2_block2_1_bn[0][0]']
 n)

 conv2_block2_2_conv (Conv2D)   (None, 50, 50, 64)   36928       ['conv2_block2_1_relu[0][0]']

 conv2_block2_2_bn (BatchNormal  (None, 50, 50, 64)  256         ['conv2_block2_2_conv[0][0]']
 ization)

 conv2_block2_2_relu (Activatio  (None, 50, 50, 64)  0           ['conv2_block2_2_bn[0][0]']
 n)

 conv2_block2_3_conv (Conv2D)   (None, 50, 50, 256)  16640       ['conv2_block2_2_relu[0][0]']

 conv2_block2_3_bn (BatchNormal  (None, 50, 50, 256)  1024       ['conv2_block2_3_conv[0][0]']
 ization)

 conv2_block2_add (Add)         (None, 50, 50, 256)  0           ['conv2_block1_out[0][0]',
                                                                  'conv2_block2_3_bn[0][0]']

 conv2_block2_out (Activation)  (None, 50, 50, 256)  0           ['conv2_block2_add[0][0]']

 conv2_block3_1_conv (Conv2D)   (None, 50, 50, 64)   16448       ['conv2_block2_out[0][0]']

 conv2_block3_1_bn (BatchNormal  (None, 50, 50, 64)  256         ['conv2_block3_1_conv[0][0]']
 ization)

 conv2_block3_1_relu (Activatio  (None, 50, 50, 64)  0           ['conv2_block3_1_bn[0][0]']
 n)

 conv2_block3_2_conv (Conv2D)   (None, 50, 50, 64)   36928       ['conv2_block3_1_relu[0][0]']    

 conv2_block3_2_bn (BatchNormal  (None, 50, 50, 64)  256         ['conv2_block3_2_conv[0][0]']
 ization)

 conv2_block3_2_relu (Activatio  (None, 50, 50, 64)  0           ['conv2_block3_2_bn[0][0]']
 n)

 conv2_block3_3_conv (Conv2D)   (None, 50, 50, 256)  16640       ['conv2_block3_2_relu[0][0]']

 conv2_block3_3_bn (BatchNormal  (None, 50, 50, 256)  1024       ['conv2_block3_3_conv[0][0]']
 ization)

 conv2_block3_add (Add)         (None, 50, 50, 256)  0           ['conv2_block2_out[0][0]',
                                                                  'conv2_block3_3_bn[0][0]']

 conv2_block3_out (Activation)  (None, 50, 50, 256)  0           ['conv2_block3_add[0][0]']

 conv3_block1_1_conv (Conv2D)   (None, 25, 25, 128)  32896       ['conv2_block3_out[0][0]']

 conv3_block1_1_bn (BatchNormal  (None, 25, 25, 128)  512        ['conv3_block1_1_conv[0][0]']
 ization)

 conv3_block1_1_relu (Activatio  (None, 25, 25, 128)  0          ['conv3_block1_1_bn[0][0]']
 n)

 conv3_block1_2_conv (Conv2D)   (None, 25, 25, 128)  147584      ['conv3_block1_1_relu[0][0]']

 conv3_block1_2_bn (BatchNormal  (None, 25, 25, 128)  512        ['conv3_block1_2_conv[0][0]']
 ization)

 conv3_block1_2_relu (Activatio  (None, 25, 25, 128)  0          ['conv3_block1_2_bn[0][0]']
 n)

 conv3_block1_0_conv (Conv2D)   (None, 25, 25, 512)  131584      ['conv2_block3_out[0][0]']       

 conv3_block1_3_conv (Conv2D)   (None, 25, 25, 512)  66048       ['conv3_block1_2_relu[0][0]']

 conv3_block1_0_bn (BatchNormal  (None, 25, 25, 512)  2048       ['conv3_block1_0_conv[0][0]']
 ization)

 conv3_block1_3_bn (BatchNormal  (None, 25, 25, 512)  2048       ['conv3_block1_3_conv[0][0]']
 ization)

 conv3_block1_add (Add)         (None, 25, 25, 512)  0           ['conv3_block1_0_bn[0][0]',
                                                                  'conv3_block1_3_bn[0][0]']

 conv3_block1_out (Activation)  (None, 25, 25, 512)  0           ['conv3_block1_add[0][0]']

 conv3_block2_1_conv (Conv2D)   (None, 25, 25, 128)  65664       ['conv3_block1_out[0][0]']

 conv3_block2_1_bn (BatchNormal  (None, 25, 25, 128)  512        ['conv3_block2_1_conv[0][0]']
 ization)

 conv3_block2_1_relu (Activatio  (None, 25, 25, 128)  0          ['conv3_block2_1_bn[0][0]']
 n)

 conv3_block2_2_conv (Conv2D)   (None, 25, 25, 128)  147584      ['conv3_block2_1_relu[0][0]']

 conv3_block2_2_bn (BatchNormal  (None, 25, 25, 128)  512        ['conv3_block2_2_conv[0][0]']
 ization)

 conv3_block2_2_relu (Activatio  (None, 25, 25, 128)  0          ['conv3_block2_2_bn[0][0]']
 n)

 conv3_block2_3_conv (Conv2D)   (None, 25, 25, 512)  66048       ['conv3_block2_2_relu[0][0]']    

 conv3_block2_3_bn (BatchNormal  (None, 25, 25, 512)  2048       ['conv3_block2_3_conv[0][0]']
 ization)

 conv3_block2_add (Add)         (None, 25, 25, 512)  0           ['conv3_block1_out[0][0]',
                                                                  'conv3_block2_3_bn[0][0]']

 conv3_block2_out (Activation)  (None, 25, 25, 512)  0           ['conv3_block2_add[0][0]']

 conv3_block3_1_conv (Conv2D)   (None, 25, 25, 128)  65664       ['conv3_block2_out[0][0]']

 conv3_block3_1_bn (BatchNormal  (None, 25, 25, 128)  512        ['conv3_block3_1_conv[0][0]']
 ization)

 conv3_block3_1_relu (Activatio  (None, 25, 25, 128)  0          ['conv3_block3_1_bn[0][0]']
 n)

 conv3_block3_2_conv (Conv2D)   (None, 25, 25, 128)  147584      ['conv3_block3_1_relu[0][0]']

 conv3_block3_2_bn (BatchNormal  (None, 25, 25, 128)  512        ['conv3_block3_2_conv[0][0]']
 ization)

 conv3_block3_2_relu (Activatio  (None, 25, 25, 128)  0          ['conv3_block3_2_bn[0][0]']
 n)

 conv3_block3_3_conv (Conv2D)   (None, 25, 25, 512)  66048       ['conv3_block3_2_relu[0][0]']

 conv3_block3_3_bn (BatchNormal  (None, 25, 25, 512)  2048       ['conv3_block3_3_conv[0][0]']
 ization)

 conv3_block3_add (Add)         (None, 25, 25, 512)  0           ['conv3_block2_out[0][0]',
                                                                  'conv3_block3_3_bn[0][0]']

 conv3_block3_out (Activation)  (None, 25, 25, 512)  0           ['conv3_block3_add[0][0]']

 conv3_block4_1_conv (Conv2D)   (None, 25, 25, 128)  65664       ['conv3_block3_out[0][0]']

 conv3_block4_1_bn (BatchNormal  (None, 25, 25, 128)  512        ['conv3_block4_1_conv[0][0]']
 ization)

 conv3_block4_1_relu (Activatio  (None, 25, 25, 128)  0          ['conv3_block4_1_bn[0][0]']
 n)

 conv3_block4_2_conv (Conv2D)   (None, 25, 25, 128)  147584      ['conv3_block4_1_relu[0][0]']

 conv3_block4_2_bn (BatchNormal  (None, 25, 25, 128)  512        ['conv3_block4_2_conv[0][0]']
 ization)

 conv3_block4_2_relu (Activatio  (None, 25, 25, 128)  0          ['conv3_block4_2_bn[0][0]']
 n)

 conv3_block4_3_conv (Conv2D)   (None, 25, 25, 512)  66048       ['conv3_block4_2_relu[0][0]']

 conv3_block4_3_bn (BatchNormal  (None, 25, 25, 512)  2048       ['conv3_block4_3_conv[0][0]']
 ization)

 conv3_block4_add (Add)         (None, 25, 25, 512)  0           ['conv3_block3_out[0][0]',
                                                                  'conv3_block4_3_bn[0][0]']

 conv3_block4_out (Activation)  (None, 25, 25, 512)  0           ['conv3_block4_add[0][0]']

 conv4_block1_1_conv (Conv2D)   (None, 13, 13, 256)  131328      ['conv3_block4_out[0][0]']       

 conv4_block1_1_bn (BatchNormal  (None, 13, 13, 256)  1024       ['conv4_block1_1_conv[0][0]']
 ization)

 conv4_block1_1_relu (Activatio  (None, 13, 13, 256)  0          ['conv4_block1_1_bn[0][0]']
 n)

 conv4_block1_2_conv (Conv2D)   (None, 13, 13, 256)  590080      ['conv4_block1_1_relu[0][0]']

 conv4_block1_2_bn (BatchNormal  (None, 13, 13, 256)  1024       ['conv4_block1_2_conv[0][0]']
 ization)

 conv4_block1_2_relu (Activatio  (None, 13, 13, 256)  0          ['conv4_block1_2_bn[0][0]']
 n)

 conv4_block1_0_conv (Conv2D)   (None, 13, 13, 1024  525312      ['conv3_block4_out[0][0]']
                                )

 conv4_block1_3_conv (Conv2D)   (None, 13, 13, 1024  263168      ['conv4_block1_2_relu[0][0]']
                                )

 conv4_block1_0_bn (BatchNormal  (None, 13, 13, 1024  4096       ['conv4_block1_0_conv[0][0]']    
 ization)                       )

 conv4_block1_3_bn (BatchNormal  (None, 13, 13, 1024  4096       ['conv4_block1_3_conv[0][0]']
 ization)                       )

 conv4_block1_add (Add)         (None, 13, 13, 1024  0           ['conv4_block1_0_bn[0][0]',
                                )                                 'conv4_block1_3_bn[0][0]']

 conv4_block1_out (Activation)  (None, 13, 13, 1024  0           ['conv4_block1_add[0][0]']
                                )

 conv4_block2_1_conv (Conv2D)   (None, 13, 13, 256)  262400      ['conv4_block1_out[0][0]']

 conv4_block2_1_bn (BatchNormal  (None, 13, 13, 256)  1024       ['conv4_block2_1_conv[0][0]']
 ization)

 conv4_block2_1_relu (Activatio  (None, 13, 13, 256)  0          ['conv4_block2_1_bn[0][0]']
 n)

 conv4_block2_2_conv (Conv2D)   (None, 13, 13, 256)  590080      ['conv4_block2_1_relu[0][0]']

 conv4_block2_2_bn (BatchNormal  (None, 13, 13, 256)  1024       ['conv4_block2_2_conv[0][0]']
 ization)

 conv4_block2_2_relu (Activatio  (None, 13, 13, 256)  0          ['conv4_block2_2_bn[0][0]']
 n)

 conv4_block2_3_conv (Conv2D)   (None, 13, 13, 1024  263168      ['conv4_block2_2_relu[0][0]']
                                )

 conv4_block2_3_bn (BatchNormal  (None, 13, 13, 1024  4096       ['conv4_block2_3_conv[0][0]']    
 ization)                       )

 conv4_block2_add (Add)         (None, 13, 13, 1024  0           ['conv4_block1_out[0][0]',
                                )                                 'conv4_block2_3_bn[0][0]']

 conv4_block2_out (Activation)  (None, 13, 13, 1024  0           ['conv4_block2_add[0][0]']
                                )

 conv4_block3_1_conv (Conv2D)   (None, 13, 13, 256)  262400      ['conv4_block2_out[0][0]']

 conv4_block3_1_bn (BatchNormal  (None, 13, 13, 256)  1024       ['conv4_block3_1_conv[0][0]']
 ization)

 conv4_block3_1_relu (Activatio  (None, 13, 13, 256)  0          ['conv4_block3_1_bn[0][0]']
 n)

 conv4_block3_2_conv (Conv2D)   (None, 13, 13, 256)  590080      ['conv4_block3_1_relu[0][0]']

 conv4_block3_2_bn (BatchNormal  (None, 13, 13, 256)  1024       ['conv4_block3_2_conv[0][0]']
 ization)

 conv4_block3_2_relu (Activatio  (None, 13, 13, 256)  0          ['conv4_block3_2_bn[0][0]']
 n)

 conv4_block3_3_conv (Conv2D)   (None, 13, 13, 1024  263168      ['conv4_block3_2_relu[0][0]']
                                )

 conv4_block3_3_bn (BatchNormal  (None, 13, 13, 1024  4096       ['conv4_block3_3_conv[0][0]']
 ization)                       )

 conv4_block3_add (Add)         (None, 13, 13, 1024  0           ['conv4_block2_out[0][0]',
                                )                                 'conv4_block3_3_bn[0][0]']

 conv4_block3_out (Activation)  (None, 13, 13, 1024  0           ['conv4_block3_add[0][0]']
                                )

 conv4_block4_1_conv (Conv2D)   (None, 13, 13, 256)  262400      ['conv4_block3_out[0][0]']

 conv4_block4_1_bn (BatchNormal  (None, 13, 13, 256)  1024       ['conv4_block4_1_conv[0][0]']
 ization)

 conv4_block4_1_relu (Activatio  (None, 13, 13, 256)  0          ['conv4_block4_1_bn[0][0]']
 n)

 conv4_block4_2_conv (Conv2D)   (None, 13, 13, 256)  590080      ['conv4_block4_1_relu[0][0]']

 conv4_block4_2_bn (BatchNormal  (None, 13, 13, 256)  1024       ['conv4_block4_2_conv[0][0]']
 ization)

 conv4_block4_2_relu (Activatio  (None, 13, 13, 256)  0          ['conv4_block4_2_bn[0][0]']
 n)

 conv4_block4_3_conv (Conv2D)   (None, 13, 13, 1024  263168      ['conv4_block4_2_relu[0][0]']
                                )

 conv4_block4_3_bn (BatchNormal  (None, 13, 13, 1024  4096       ['conv4_block4_3_conv[0][0]']
 ization)                       )

 conv4_block4_add (Add)         (None, 13, 13, 1024  0           ['conv4_block3_out[0][0]',
                                )                                 'conv4_block4_3_bn[0][0]']

 conv4_block4_out (Activation)  (None, 13, 13, 1024  0           ['conv4_block4_add[0][0]']
                                )

 conv4_block5_1_conv (Conv2D)   (None, 13, 13, 256)  262400      ['conv4_block4_out[0][0]']

 conv4_block5_1_bn (BatchNormal  (None, 13, 13, 256)  1024       ['conv4_block5_1_conv[0][0]']
 ization)

 conv4_block5_1_relu (Activatio  (None, 13, 13, 256)  0          ['conv4_block5_1_bn[0][0]']
 n)

 conv4_block5_2_conv (Conv2D)   (None, 13, 13, 256)  590080      ['conv4_block5_1_relu[0][0]']    

 conv4_block5_2_bn (BatchNormal  (None, 13, 13, 256)  1024       ['conv4_block5_2_conv[0][0]']
 ization)

 conv4_block5_2_relu (Activatio  (None, 13, 13, 256)  0          ['conv4_block5_2_bn[0][0]']
 n)

 conv4_block5_3_conv (Conv2D)   (None, 13, 13, 1024  263168      ['conv4_block5_2_relu[0][0]']
                                )

 conv4_block5_3_bn (BatchNormal  (None, 13, 13, 1024  4096       ['conv4_block5_3_conv[0][0]']
 ization)                       )

 conv4_block5_add (Add)         (None, 13, 13, 1024  0           ['conv4_block4_out[0][0]',
                                )                                 'conv4_block5_3_bn[0][0]']

 conv4_block5_out (Activation)  (None, 13, 13, 1024  0           ['conv4_block5_add[0][0]']
                                )

 conv4_block6_1_conv (Conv2D)   (None, 13, 13, 256)  262400      ['conv4_block5_out[0][0]']

 conv4_block6_1_bn (BatchNormal  (None, 13, 13, 256)  1024       ['conv4_block6_1_conv[0][0]']
 ization)

 conv4_block6_1_relu (Activatio  (None, 13, 13, 256)  0          ['conv4_block6_1_bn[0][0]']
 n)

 conv4_block6_2_conv (Conv2D)   (None, 13, 13, 256)  590080      ['conv4_block6_1_relu[0][0]']

 conv4_block6_2_bn (BatchNormal  (None, 13, 13, 256)  1024       ['conv4_block6_2_conv[0][0]']
 ization)

 conv4_block6_2_relu (Activatio  (None, 13, 13, 256)  0          ['conv4_block6_2_bn[0][0]']      
 n)

 conv4_block6_3_conv (Conv2D)   (None, 13, 13, 1024  263168      ['conv4_block6_2_relu[0][0]']
                                )

 conv4_block6_3_bn (BatchNormal  (None, 13, 13, 1024  4096       ['conv4_block6_3_conv[0][0]']
 ization)                       )

 conv4_block6_add (Add)         (None, 13, 13, 1024  0           ['conv4_block5_out[0][0]',
                                )                                 'conv4_block6_3_bn[0][0]']

 conv4_block6_out (Activation)  (None, 13, 13, 1024  0           ['conv4_block6_add[0][0]']
                                )

 conv5_block1_1_conv (Conv2D)   (None, 7, 7, 512)    524800      ['conv4_block6_out[0][0]']

 conv5_block1_1_bn (BatchNormal  (None, 7, 7, 512)   2048        ['conv5_block1_1_conv[0][0]']
 ization)

 conv5_block1_1_relu (Activatio  (None, 7, 7, 512)   0           ['conv5_block1_1_bn[0][0]']
 n)

 conv5_block1_2_conv (Conv2D)   (None, 7, 7, 512)    2359808     ['conv5_block1_1_relu[0][0]']

 conv5_block1_2_bn (BatchNormal  (None, 7, 7, 512)   2048        ['conv5_block1_2_conv[0][0]']
 ization)

 conv5_block1_2_relu (Activatio  (None, 7, 7, 512)   0           ['conv5_block1_2_bn[0][0]']
 n)

 conv5_block1_0_conv (Conv2D)   (None, 7, 7, 2048)   2099200     ['conv4_block6_out[0][0]']       

 conv5_block1_3_conv (Conv2D)   (None, 7, 7, 2048)   1050624     ['conv5_block1_2_relu[0][0]']

 conv5_block1_0_bn (BatchNormal  (None, 7, 7, 2048)  8192        ['conv5_block1_0_conv[0][0]']
 ization)

 conv5_block1_3_bn (BatchNormal  (None, 7, 7, 2048)  8192        ['conv5_block1_3_conv[0][0]']
 ization)

 conv5_block1_add (Add)         (None, 7, 7, 2048)   0           ['conv5_block1_0_bn[0][0]',
                                                                  'conv5_block1_3_bn[0][0]']

 conv5_block1_out (Activation)  (None, 7, 7, 2048)   0           ['conv5_block1_add[0][0]']

 conv5_block2_1_conv (Conv2D)   (None, 7, 7, 512)    1049088     ['conv5_block1_out[0][0]']

 conv5_block2_1_bn (BatchNormal  (None, 7, 7, 512)   2048        ['conv5_block2_1_conv[0][0]']
 ization)

 conv5_block2_1_relu (Activatio  (None, 7, 7, 512)   0           ['conv5_block2_1_bn[0][0]']
 n)

 conv5_block2_2_conv (Conv2D)   (None, 7, 7, 512)    2359808     ['conv5_block2_1_relu[0][0]']

 conv5_block2_2_bn (BatchNormal  (None, 7, 7, 512)   2048        ['conv5_block2_2_conv[0][0]']
 ization)

 conv5_block2_2_relu (Activatio  (None, 7, 7, 512)   0           ['conv5_block2_2_bn[0][0]']
 n)

 conv5_block2_3_conv (Conv2D)   (None, 7, 7, 2048)   1050624     ['conv5_block2_2_relu[0][0]']

 conv5_block2_3_bn (BatchNormal  (None, 7, 7, 2048)  8192        ['conv5_block2_3_conv[0][0]']
 ization)

 conv5_block2_add (Add)         (None, 7, 7, 2048)   0           ['conv5_block1_out[0][0]',
                                                                  'conv5_block2_3_bn[0][0]']

 conv5_block2_out (Activation)  (None, 7, 7, 2048)   0           ['conv5_block2_add[0][0]']

 conv5_block3_1_conv (Conv2D)   (None, 7, 7, 512)    1049088     ['conv5_block2_out[0][0]']

 conv5_block3_1_bn (BatchNormal  (None, 7, 7, 512)   2048        ['conv5_block3_1_conv[0][0]']
 ization)

 conv5_block3_1_relu (Activatio  (None, 7, 7, 512)   0           ['conv5_block3_1_bn[0][0]']
 n)

 conv5_block3_2_conv (Conv2D)   (None, 7, 7, 512)    2359808     ['conv5_block3_1_relu[0][0]']

 conv5_block3_2_bn (BatchNormal  (None, 7, 7, 512)   2048        ['conv5_block3_2_conv[0][0]']
 ization)

 conv5_block3_2_relu (Activatio  (None, 7, 7, 512)   0           ['conv5_block3_2_bn[0][0]']
 n)

 conv5_block3_3_conv (Conv2D)   (None, 7, 7, 2048)   1050624     ['conv5_block3_2_relu[0][0]']

 conv5_block3_3_bn (BatchNormal  (None, 7, 7, 2048)  8192        ['conv5_block3_3_conv[0][0]']
 ization)

 conv5_block3_add (Add)         (None, 7, 7, 2048)   0           ['conv5_block2_out[0][0]',
                                                                  'conv5_block3_3_bn[0][0]']

 conv5_block3_out (Activation)  (None, 7, 7, 2048)   0           ['conv5_block3_add[0][0]']

 sequential (Sequential)        (None, 1077)         6492597     ['conv5_block3_out[0][0]']

==================================================================================================
Total params: 30,080,309
Trainable params: 30,027,189
Non-trainable params: 53,120
__________________________________________________________________________________________________
Found 241477 images belonging to 1077 classes.
Found 31009 images belonging to 1077 classes.
…
